app/src/main/assets/deeplab_v3_quant.tflite (tflite, 748912 bytes, 55 tensors)

MobilenetV2/expanded_conv_10/depthwise/depthwise_weights/read_reordered u1 [1, 3, 3, 192] scale=0.031610046 zero_point=128
0.0 -0.12644018 -0.15805022 -0.18966028 0.37932056 0.031610046 -0.06322009 0.06322009
0.15805022 -0.18966028 0.09483014 0.5057607 0.15805022 -0.09483014 0.12644018 -0.79025114
-0.12644018 0.031610046 0.22127032 -0.12644018 -0.5057607 0.0 0.031610046 0.12644018
0.0 0.06322009 0.09483014 0.06322009 0.25288036 0.44254065 -0.5689808 -0.031610046
0.37932056 -0.09483014 -0.15805022 -0.09483014 -0.09483014 -0.09483014 0.06322009 -0.06322009
-0.15805022 0.0 0.2844904 0.25288036 -0.12644018 0.25288036 -0.031610046 -0.031610046
-0.12644018 0.06322009 0.15805022 0.0 -0.15805022 -0.15805022 -0.18966028 0.06322009
0.031610046 0.031610046 -0.031610046 -0.09483014 -0.09483014 0.15805022 -0.25288036 -0.25288036
-0.031610046 -0.12644018 -0.09483014 -0.12644018 -0.09483014 0.12644018 0.09483014 0.0
0.09483014 -0.06322009 0.695421 -0.09483014 0.4109306 -0.15805022 0.09483014 0.18966028
0.5373708 0.5689808 -0.06322009 -0.15805022 0.12644018 0.031610046 -0.06322009 0.06322009
0.12644018 -0.25288036 0.18966028 -0.25288036 -0.06322009 -0.18966028 0.695421 0.06322009
-0.09483014 0.18966028 -0.12644018 0.06322009 1.0115215 0.09483014 -0.2844904 0.031610046
0.18966028 0.031610046 0.09483014 -0.2844904 -0.2844904 0.031610046 0.2844904 0.22127032
0.09483014 1.1063516 0.12644018 -0.12644018 0.22127032 0.18966028 -0.22127032 0.15805022
-0.031610046 -0.15805022 0.25288036 -0.09483014 0.09483014 -0.25288036 0.031610046 0.031610046
-0.37932056 -0.8218612 0.0 -0.4109306 -0.3477105 0.06322009 -0.031610046 -0.37932056
0.7586411 0.09483014 -0.09483014 -0.4109306 -0.15805022 0.09483014 -0.06322009 -0.09483014
0.09483014 0.15805022 -0.31610045 0.15805022 -0.31610045 0.0 0.09483014 0.06322009
-0.09483014 0.031610046 -0.09483014 -0.031610046 0.0 0.12644018 0.06322009 0.4109306
-0.15805022 0.06322009 -0.09483014 0.12644018 0.06322009 -0.18966028 0.031610046 0.06322009
-0.66381097 -0.18966028 0.031610046 0.15805022 0.06322009 0.031610046 0.25288036 -0.31610045
0.06322009 0.15805022 0.06322009 -0.031610046 0.695421 0.06322009 0.031610046 -0.18966028
0.09483014 0.31610045 -0.22127032 -0.06322009 0.06322009 0.06322009 0.31610045 -0.09483014
-0.22127032 -0.12644018 0.31610045 -0.44254065 0.9799114 0.22127032 -0.15805022 0.031610046
0.37932056 -1.2011818 0.44254065 1.4540621 0.25288036 -0.18966028 0.25288036 -0.18966028
-0.25288036 0.06322009 0.6322009 -0.12644018 -0.5373708 0.18966028 -0.15805022 0.3477105
-0.12644018 0.2844904 0.18966028 0.22127032 0.4741507 2.4023635 -0.8850813 0.31610045
0.4741507 -0.25288036 -0.4741507 -0.22127032 0.37932056 0.44254065 0.79025114 -0.3477105
-0.3477105 0.18966028 -2.3075333 0.5373708 -0.15805022 0.44254065 0.22127032 0.12644018
-0.37932056 0.5057607 0.18966028 -0.031610046 -0.18966028 -0.44254065 -0.4109306 0.5057607
0.22127032 0.031610046 0.22127032 -0.12644018 -0.2844904 0.4109306 0.0 0.31610045
00000000: 807c 7b7a 8c81 7e82 857a 8390 857d 8467
00000010: 7c81 877c 7080 8184 8082 8382 888e 6e7f
00000020: 8c7d 7b7d 7d7d 827e 7b80 8988 7c88 7f7f
00000030: 7c82 8580 7b7b 7a82 8181 7f7d 7d85 7878
00000040: 7f7c 7d7c 7d84 8380 837e 967d 8d7b 8386
00000050: 9192 7e7b 8481 7e82 8478 8678 7e7a 9682
00000060: 7d86 7c82 a083 7781 8681 8377 7781 8987
00000070: 83a3 847c 8786 7985 7f7b 887d 8378 8181
00000080: 7466 8073 7582 7f74 9883 7d73 7b83 7e7d
00000090: 8385 7685 7680 8382 7d81 7d7f 8084 828d
000000a0: 7b82 7d84 827a 8182 6b7a 8185 8281 8876
000000b0: 8285 827f 9682 817a 838a 797e 8282 8a7d
000000c0: 797c 8a72 9f87 7b81 8c5a 8eae 887a 887a
000000d0: 7882 947c 6f86 7b8b 7c89 8687 8fcc 648a
000000e0: 8f78 7179 8c8e 9975 7586 3791 7b8e 8784
000000f0: 7490 867f 7a72 7390 8781 877c 778d 808a

MobilenetV2/expanded_conv_16/project/weights/read_reordered u1 [160, 1, 1, 480] scale=0.006319909 zero_point=128
0.037919454 -0.05687918 0.012639818 -0.012639818 0.006319909 0.24015653 0.20223708 0.139038
-0.139038 0.11375836 -0.12639818 -0.006319909 0.2907158 -0.08215882 -0.07583891 0.0
-0.16431764 0.018959727 -0.22119682 0.05687918 -0.08847872 0.12639818 -0.22751673 0.18327735
-0.19591717 -0.41079408 -0.40447417 -0.25279635 0.05687918 -0.17063753 0.031599544 0.025279636
0.15167782 0.006319909 0.13271809 -0.18959726 0.031599544 0.069519 0.17695744 0.006319909
0.27175608 -0.012639818 -0.05055927 0.025279636 0.18327735 0.05055927 0.24015653 -0.069519
0.17695744 -0.26543617 -0.10743845 0.38551444 -0.09479863 0.32231537 0.006319909 0.24015653
0.31599545 -0.120078266 -0.15167782 0.24647644 -0.05055927 0.3602348 0.069519 0.17063753
0.37919453 0.17063753 -0.09479863 -0.06319909 0.25911626 0.0 0.34759498 0.32231537
-0.031599544 0.49295288 -0.17695744 -0.10743845 0.025279636 -0.2148769 -0.18959726 0.19591717
-0.018959727 0.17695744 -0.018959727 0.07583891 -0.39815426 -0.16431764 -0.07583891 0.037919454
-0.11375836 -0.025279636 0.0 0.23383664 -0.208557 -0.069519 0.025279636 0.31599545
-0.17063753 -0.25911626 -0.11375836 0.08215882 -0.04423936 0.40447417 0.06319909 0.22119682
0.17695744 0.05687918 0.17063753 0.08847872 -0.06319909 0.08847872 -0.11375836 -0.006319909
0.0 -0.10743845 -0.025279636 0.025279636 0.25279635 0.05687918 0.006319909 0.012639818
-0.24647644 -0.208557 -0.07583891 -0.4297538 -0.006319909 0.208557 -0.278076 0.05687918
-0.24015653 0.13271809 0.139038 0.025279636 -0.037919454 -0.24015653 -0.22119682 -0.09479863
0.37919453 0.49295288 -0.10743845 0.08215882 0.05055927 0.18327735 0.006319909 0.12639818
-0.22119682 0.12639818 0.120078266 -0.25279635 -0.018959727 0.16431764 0.11375836 0.037919454
-0.006319909 -0.19591717 -0.07583891 0.012639818 0.17695744 -0.12639818 0.22119682 0.10111854
-0.17063753 -0.012639818 0.29703572 0.34127507 0.04423936 0.19591717 0.05055927 0.120078266
-0.17063753 0.120078266 -0.05055927 0.08215882 -0.2148769 -0.17063753 0.018959727 0.45503345
0.1453579 -0.24647644 -0.08215882 0.43607372 -0.20223708 -0.139038 -0.3539149 0.12639818
0.04423936 0.08215882 -0.13271809 0.15167782 0.05055927 -0.06319909 0.12639818 -0.09479863
-0.04423936 -0.012639818 0.18959726 0.15167782 0.25279635 0.20223708 0.05055927 -0.19591717
0.13271809 -0.05055927 0.04423936 0.30335563 -0.22751673 0.278076 0.15167782 -0.26543617
0.05055927 -0.04423936 0.17695744 0.08847872 0.20223708 -0.018959727 0.04423936 0.20223708
-0.11375836 0.08847872 0.23383664 -0.11375836 0.3539149 0.04423936 0.0 -0.15799773
0.006319909 0.025279636 0.006319909 -0.30967554 -0.031599544 0.06319909 0.069519 0.012639818
0.23383664 -0.19591717 0.06319909 -0.19591717 0.006319909 -0.19591717 -0.10111854 -0.025279636
0.31599545 -0.08215882 -0.23383664 -0.07583891 -0.12639818 -0.23383664 -0.22751673 0.2907158
0.05687918 0.41079408 -0.05687918 0.2843959 0.45503345 0.025279636 -0.22119682 0.006319909
00000000: 8677 827e 81a6 a096 6a92 6c7f ae73 7480
00000010: 6683 5d89 7294 5c9d 613f 4058 8965 8584
00000020: 9881 9562 858b 9c81 ab7e 7884 9d88 a675
00000030: 9c56 6fbd 71b3 81a6 b26d 68a7 78b9 8b9b
00000040: bc9b 7176 a980 b7b3 7bce 646f 845e 629f
00000050: 7d9c 7d8c 4166 7486 6e7c 80a5 5f75 84b2
00000060: 6557 6e8d 79c0 8aa3 9c89 9b8e 768e 6e7f
00000070: 806f 7c84 a889 8182 595f 743c 7fa1 5489
00000080: 5a95 9684 7a5a 5d71 bcce 6f8d 889d 8194
00000090: 5d94 9358 7d9a 9286 7f61 7482 9c6c a390
000000a0: 657e afb6 879f 8893 6593 788d 5e65 83c8
000000b0: 9759 73c5 606a 4894 878d 6b98 8876 9471
000000c0: 797e 9e98 a8a0 8861 9578 87b0 5cac 9856
000000d0: 8879 9c8e a07d 87a0 6e8e a56e b887 8067
000000e0: 8184 814f 7b8a 8b82 a561 8a61 8161 707c
000000f0: b273 5b74 6c5b 5cae 89c1 77ad c884 5d81

MobilenetV2/expanded_conv/depthwise/depthwise_weights/read_reordered u1 [1, 3, 3, 16] scale=0.092117704 zero_point=128
0.0 -0.18423541 -0.6448239 -0.18423541 0.092117704 0.0 0.092117704 -11.791066
-0.092117704 0.27635312 0.092117704 0.0 -2.9477665 0.4605885 -3.3162374 0.0
-0.27635312 0.0 -0.092117704 0.0 0.0 0.0 -0.36847082 -4.42165
0.092117704 -0.092117704 0.0 -0.092117704 1.6581187 1.0132947 -3.684708 0.0
0.18423541 0.0 0.092117704 -0.092117704 0.0 0.092117704 0.18423541 -8.8433
0.0 0.0 0.0 0.0 1.3817656 -0.092117704 0.6448239 0.0
-0.36847082 0.0 -0.921177 -0.82905936 -0.18423541 0.27635312 -1.0132947 -2.6714134
-1.1975302 -0.092117704 0.0 -0.092117704 -5.7112975 0.092117704 3.1320019 1.6581187
-1.1975302 0.0 -0.092117704 -0.921177 -0.36847082 2.8556488 -1.5660009 0.55270624
0.092117704 -0.18423541 -1.3817656 -0.18423541 1.0132947 1.3817656 1.9344718 -0.092117704
-0.092117704 0.0 -0.82905936 0.092117704 0.092117704 -0.4605885 -0.6448239 0.55270624
0.0 0.0 0.36847082 -0.18423541 4.698003 -0.18423541 0.0 0.0
0.36847082 0.0 -0.27635312 0.36847082 0.092117704 -0.36847082 0.921177 -6.724592
0.092117704 0.0 0.092117704 -0.092117704 0.73694164 -0.6448239 0.27635312 -0.092117704
0.73694164 0.0 0.0 0.4605885 0.0 -1.6581187 1.0132947 -3.408355
0.0 0.0 0.27635312 -0.092117704 0.27635312 -1.1054125 1.5660009 -0.092117704
0.18423541 0.0 -0.4605885 -0.092117704 -0.092117704 0.0 0.55270624 -0.092117704
0.0 0.0 -0.092117704 -0.18423541 -1.0132947 -0.27635312 -0.55270624 0.0
00000000: 807e 797e 8180 8100 7f83 8180 6085 5c80
00000010: 7d80 7f80 8080 7c50 817f 807f 928b 5880
00000020: 8280 817f 8081 8220 8080 8080 8f7f 8780
00000030: 7c80 7677 7e83 7563 737f 807f 4281 a292
00000040: 7380 7f76 7c9f 6f86 817e 717e 8b8f 957f
00000050: 7f80 7781 817b 7986 8080 847e b37e 8080
00000060: 8480 7d84 817c 8a37 8180 817f 8879 837f
00000070: 8880 8085 806e 8b5b 8080 837f 8374 917f
00000080: 8280 7b7f 7f80 867f 8080 7f7e 757d 7a80

MobilenetV2/expanded_conv_1/project/weights/read_reordered u1 [12, 1, 1, 48] scale=0.025433496 zero_point=128
2.4670491 -1.0427734 -2.1364136 -0.22890146 0.30520195 -2.721384 -0.35606894 0.25433496
-0.10173398 -0.07630049 0.25433496 0.66127086 -0.30520195 0.6104039 -0.30520195 -0.12716748
-0.07630049 0.0 0.5341034 0.0 0.33063543 -2.1364136 0.10173398 -0.17803447
0.07630049 -0.025433496 0.25433496 0.5086699 0.0 -0.66127086 -0.33063543 0.10173398
-0.17803447 1.2462413 -0.07630049 -0.30520195 -0.27976847 -0.38150245 -0.17803447 0.025433496
2.0346797 0.0 0.0 0.4323694 -0.30520195 0.10173398 -0.15260097 0.6867044
-0.20346797 -0.55953693 -0.48323643 -0.025433496 -0.25433496 0.025433496 -0.20346797 0.30520195
0.0 0.20346797 -0.9410393 -0.5341034 0.73757136 -0.33063543 -2.4670491 -0.45780292
-0.45780292 0.40693593 0.83930534 -0.6358374 -0.25433496 0.9410393 0.10173398 -0.48323643
0.5086699 0.48323643 0.20346797 -1.9075122 -0.10173398 0.17803447 -0.12716748 0.30520195
0.15260097 0.10173398 -2.0601132 0.05086699 -0.10173398 1.0936403 0.025433496 0.5341034
0.5086699 0.38150245 0.40693593 -0.30520195 -0.48323643 0.5086699 0.15260097 -0.4323694
0.05086699 0.10173398 0.38150245 -2.2381477 0.15260097 -0.30520195 -0.22890146 -1.9838127
-1.2462413 0.15260097 0.12716748 0.025433496 0.025433496 0.33063543 0.15260097 0.05086699
-0.17803447 0.20346797 -0.20346797 -0.45780292 0.30520195 0.25433496 0.20346797 0.22890146
0.10173398 0.07630049 -0.83930534 0.0 -0.025433496 -0.10173398 -1.9329457 0.17803447
-0.22890146 -0.73757136 0.20346797 -2.5433495 -2.7722511 0.10173398 0.0 0.20346797
0.38150245 0.20346797 -0.17803447 -2.1364136 0.25433496 0.15260097 0.07630049 -0.10173398
0.20346797 0.27976847 0.10173398 -0.30520195 0.7884384 0.6104039 0.55953693 -0.4323694
-0.10173398 0.05086699 0.27976847 0.55953693 -0.45780292 0.38150245 -1.0173398 0.25433496
0.5086699 -0.10173398 0.22890146 1.6531773 0.22890146 -0.12716748 -0.5086699 0.20346797
0.025433496 -0.12716748 -0.7121379 -0.35606894 1.6786107 0.35606894 0.0 0.07630049
-0.73757136 3.230054 -0.81387186 -0.38150245 -0.22890146 -0.48323643 -0.07630049 0.05086699
-0.9410393 0.0 -0.12716748 0.15260097 0.20346797 -0.12716748 -0.22890146 -0.15260097
0.15260097 -0.91560584 0.17803447 0.22890146 0.20346797 -0.17803447 0.05086699 0.12716748
0.40693593 -1.0682068 -0.17803447 -1.7549112 -0.5341034 -2.0346797 -0.05086699 -0.96647286
-1.7040442 -0.99190634 0.48323643 0.07630049 -1.9329457 -0.05086699 -0.5849704 -1.9583791
-0.5849704 0.9410393 -0.22890146 0.5086699 0.25433496 0.07630049 0.07630049 -0.7884384
-0.35606894 0.33063543 0.48323643 -0.12716748 -0.22890146 1.8057781 -0.38150245 -1.0936403
0.6867044 -0.73757136 1.0427734 0.07630049 -1.7803447 0.20346797 1.4497093 0.5849704
0.7121379 1.1699408 0.4323694 0.10173398 0.15260097 0.20346797 -0.17803447 -0.10173398
-0.20346797 -0.05086699 -0.7121379 -0.27976847 0.6867044 -1.3479753 0.10173398 0.0
00000000: e157 2c77 8c15 728a 7c7d 8a9a 7498 747b
00000010: 7d80 9580 8d2c 8479 837f 8a94 8066 7384
00000020: 79b1 7d74 7571 7981 d080 8091 7484 7a9b
00000030: 786a 6d7f 7681 788c 8088 5b6b 9d73 1f6e
00000040: 6e90 a167 76a5 846d 9493 8835 7c87 7b8c
00000050: 8684 2f82 7cab 8195 948f 9074 6d94 866f
00000060: 8284 8f28 8674 7732 4f86 8581 818d 8682
00000070: 7988 786e 8c8a 8889 8483 5f80 7f7c 3487
00000080: 7763 881c 1384 8088 8f88 792c 8a86 837c
00000090: 888b 8474 9f98 966f 7c82 8b96 6e8f 588a
000000a0: 947c 89c1 897b 6c88 817b 6472 c28e 8083
000000b0: 63ff 6071 776d 7d82 5b80 7b86 887b 777a
000000c0: 865c 8789 8879 8285 9056 793b 6b30 7e5a
000000d0: 3d59 9383 347e 6933 69a5 7794 8a83 8361
000000e0: 728d 937b 77c7 7155 9b63 a983 3a88 b997
000000f0: 9cae 9184 8688 797c 787e 6475 9b4b 8480

MobilenetV2/expanded_conv_1/expand/weights/read_reordered u1 [48, 1, 1, 8] scale=0.0037965935 zero_point=128
0.034169342 0.022779562 -0.041762527 0.018982967 -0.07593187 -0.0037965935 -0.41762528 -0.011389781
0.060745496 -0.056948904 0.041762527 0.0 -0.030372748 -0.022779562 -0.041762527 -0.09111825
0.015186374 0.034169342 -0.0037965935 0.037965935 0.07213528 0.0037965935 0.4783708 -0.015186374
0.0 -0.0037965935 0.011389781 -0.12149099 -0.034169342 0.049355716 0.011389781 0.007593187
-0.030372748 0.0 0.087321654 0.030372748 -0.26196495 0.2885411 0.045559123 0.034169342
-0.0037965935 -0.015186374 -0.0037965935 -0.0037965935 0.026576154 0.0037965935 0.11389781 -0.007593187
-0.015186374 -0.011389781 -0.13288078 0.022779562 0.21260923 -0.24677858 -0.049355716 -0.030372748
-0.018982967 0.007593187 0.10250802 0.21260923 0.06454209 -0.053152308 -0.022779562 0.037965935
-0.007593187 -0.0037965935 0.1176944 0.007593187 0.0 0.030372748 -0.011389781 0.045559123
-0.10250802 -0.09491484 -0.007593187 0.0 -0.0037965935 -0.007593187 0.007593187 -0.0037965935
-0.022779562 0.034169342 -0.015186374 -0.0037965935 0.011389781 0.007593187 -0.018982967 0.049355716
0.14047396 0.14047396 0.022779562 -0.007593187 0.007593187 0.007593187 -0.007593187 0.007593187
-0.09111825 0.053152308 -0.026576154 0.030372748 0.48216736 0.48216736 -0.14427055 -0.34549
-0.053152308 0.026576154 -0.030372748 -0.0037965935 0.0037965935 0.015186374 -0.007593187 0.06454209
0.049355716 -0.056948904 0.026576154 0.0 -0.022779562 0.011389781 0.007593187 -0.10250802
0.060745496 -0.09491484 -0.030372748 -0.0037965935 0.053152308 0.045559123 -0.015186374 0.12149099
-0.18982968 -0.17464331 0.0 -0.015186374 0.0 -0.030372748 0.007593187 -0.0037965935
0.018982967 0.09871143 0.0 -0.018982967 0.018982967 0.0 0.011389781 0.045559123
-0.0037965935 0.011389781 -0.011389781 0.011389781 0.022779562 0.018982967 0.007593187 0.022779562
-0.015186374 0.018982967 0.0037965935 -0.007593187 -0.041762527 -0.041762527 0.011389781 0.026576154
0.041762527 -0.049355716 0.015186374 0.0 -0.011389781 -0.018982967 -0.015186374 -0.07972846
-0.034169342 0.049355716 -0.022779562 0.0 0.011389781 0.0 -0.049355716 0.07213528
-0.041762527 0.049355716 -0.026576154 -0.022779562 0.0037965935 -0.026576154 0.007593187 0.068338685
0.056948904 -0.037965935 0.018982967 0.0037965935 -0.041762527 -0.007593187 -0.011389781 -0.07213528
0.037965935 -0.045559123 -0.018982967 0.0037965935 0.022779562 0.022779562 -0.007593187 0.068338685
-0.037965935 0.060745496 0.053152308 -0.0037965935 -0.037965935 -0.053152308 0.0037965935 -0.083525054
-0.007593187 0.007593187 0.07213528 0.049355716 -0.07972846 0.09871143 0.007593187 0.030372748
0.045559123 -0.0037965935 0.007593187 0.018982967 0.026576154 0.026576154 0.053152308 -0.041762527
-0.16705011 0.14047396 -0.09871143 0.022779562 0.09491484 0.030372748 -0.015186374 0.14427055
-0.068338685 0.060745496 0.037965935 -0.011389781 0.19362627 0.1784399 -0.030372748 -0.1784399
0.011389781 0.0 -0.28094792 0.041762527 -0.060745496 0.0037965935 0.030372748 -0.09871143
-0.083525054 0.056948904 0.049355716 0.0 -0.022779562 -0.056948904 0.007593187 -0.09111825
00000000: 8986 7585 6c7f 127d 9071 8b80 787a 7568
00000010: 8489 7f8a 9381 fe7c 807f 8360 778d 8382
00000020: 7880 9788 3bcc 8c89 7f7c 7f7f 8781 9e7e
00000030: 7c7d 5d86 b83f 7378 7b82 9bb8 9172 7a8a
00000040: 7e7f 9f82 8088 7d8c 6567 7e80 7f7e 827f
00000050: 7a89 7c7f 8382 7b8d a5a5 867e 8282 7e82
00000060: 688e 7988 ffff 5a25 7287 787f 8184 7e91
00000070: 8d71 8780 7a83 8265 9067 787f 8e8c 7ca0
00000080: 4e52 807c 8078 827f 859a 807b 8580 838c
00000090: 7f83 7d83 8685 8286 7c85 817e 7575 8387
000000a0: 8b73 8480 7d7b 7c6b 778d 7a80 8380 7393
000000b0: 758d 797a 8179 8292 8f76 8581 757e 7d6d
000000c0: 8a74 7b81 8686 7e92 7690 8e7f 7672 816a
000000d0: 7e82 938d 6b9a 8288 8c7f 8285 8787 8e75
000000e0: 54a5 6686 9988 7ca6 6e90 8a7d b3af 7851
000000f0: 8380 368b 7081 8866 6a8f 8d80 7a71 8268

MobilenetV2/expanded_conv_3/expand/weights/read_reordered u1 [72, 1, 1, 12] scale=0.018610092 zero_point=128
-0.037220184 0.0 0.018610092 0.0 -0.018610092 -0.14888074 0.07444037 -0.037220184
0.018610092 0.09305046 0.037220184 -0.09305046 0.0 0.0 0.0 0.0
0.018610092 0.018610092 0.0 0.0 0.0 -0.018610092 0.0 0.0
0.14888074 0.111660555 0.055830278 -0.111660555 0.14888074 -0.2605413 -0.18610092 -0.13027065
-0.204711 -0.13027065 -0.33498165 -0.09305046 0.018610092 -0.037220184 0.07444037 0.018610092
-0.16749083 -0.2605413 0.037220184 0.018610092 -0.018610092 0.13027065 0.07444037 -0.14888074
-0.018610092 0.018610092 0.0 0.0 0.018610092 0.037220184 0.0 0.018610092
0.0 -0.018610092 -0.018610092 -0.037220184 0.018610092 -0.055830278 0.07444037 0.4280321
0.13027065 -0.018610092 0.018610092 -0.22332111 0.055830278 0.055830278 0.09305046 0.037220184
0.0 0.0 0.0 -0.055830278 -0.018610092 0.018610092 0.0 -0.13027065
0.0 0.018610092 0.0 0.018610092 0.018610092 0.018610092 0.0 -0.018610092
0.055830278 0.037220184 -0.18610092 0.018610092 -0.018610092 0.018610092 0.018610092 0.09305046
0.0 -0.037220184 0.0 -0.018610092 0.055830278 -0.018610092 0.055830278 0.0
0.0 0.0 0.0 0.07444037 0.0 0.0 -0.037220184 0.13027065
0.0 -0.018610092 -0.018610092 -0.055830278 0.0 0.0 0.0 0.037220184
-0.09305046 -0.09305046 0.018610092 -0.037220184 -0.055830278 -0.018610092 -0.5210826 -0.018610092
-0.07444037 0.14888074 0.07444037 0.22332111 0.07444037 0.07444037 0.037220184 -0.29776147
-0.13027065 0.111660555 -0.13027065 -0.111660555 0.111660555 -0.111660555 -0.07444037 0.018610092
0.0 -0.018610092 -0.037220184 -0.018610092 0.0 -0.037220184 0.0 0.0
0.0 -0.018610092 0.055830278 0.037220184 0.055830278 -0.111660555 0.055830278 0.018610092
0.037220184 0.055830278 0.018610092 0.0 0.037220184 -0.13027065 -0.055830278 0.037220184
0.09305046 -0.037220184 0.018610092 -0.018610092 0.018610092 -0.055830278 0.018610092 0.0
0.0 0.037220184 0.037220184 0.0 0.018610092 -0.037220184 -0.037220184 -0.07444037
0.0 -0.018610092 0.0 -0.018610092 0.0 0.018610092 0.018610092 0.037220184
-0.14888074 0.07444037 0.0 0.018610092 -0.037220184 0.07444037 0.0 -0.018610092
0.018610092 -0.07444037 -0.055830278 -0.018610092 -0.018610092 0.0 0.0 -0.07444037
0.204711 0.018610092 0.29776147 -0.018610092 0.018610092 0.018610092 0.0 0.22332111
-0.018610092 0.0 0.07444037 0.111660555 0.018610092 -0.018610092 -0.018610092 -0.111660555
0.0 0.0 0.0 0.018610092 -0.018610092 0.018610092 0.0 0.09305046
0.018610092 -0.018610092 -0.018610092 0.14888074 0.0 -0.018610092 -0.018610092 0.0
-0.018610092 -0.018610092 0.0 0.0 0.018610092 -0.018610092 0.018610092 0.0
0.0 0.0 0.0 0.055830278 0.09305046 0.018610092 -0.018610092 0.29776147
00000000: 7e80 8180 7f78 847e 8185 827b 8080 8080
00000010: 8181 8080 807f 8080 8886 837a 8872 7679
00000020: 7579 6e7b 817e 8481 7772 8281 7f87 8478
00000030: 7f81 8080 8182 8081 807f 7f7e 817d 8497
00000040: 877f 8174 8383 8582 8080 807d 7f81 8079
00000050: 8081 8081 8181 807f 8382 7681 7f81 8185
00000060: 807e 807f 837f 8380 8080 8084 8080 7e87
00000070: 807f 7f7d 8080 8082 7b7b 817e 7d7f 647f
00000080: 7c88 848c 8484 8270 7986 797a 867a 7c81
00000090: 807f 7e7f 807e 8080 807f 8382 837a 8381
000000a0: 8283 8180 8279 7d82 857e 817f 817d 8180
000000b0: 8082 8280 817e 7e7c 807f 807f 8081 8182
000000c0: 7884 8081 7e84 807f 817c 7d7f 7f80 807c
000000d0: 8b81 907f 8181 808c 7f80 8486 817f 7f7a
000000e0: 8080 8081 7f81 8085 817f 7f88 807f 7f80
000000f0: 7f7f 8080 817f 8180 8080 8083 8581 7f90

MobilenetV2/expanded_conv_1/depthwise/depthwise_weights/read_reordered u1 [1, 3, 3, 48] scale=0.027197042 zero_point=128
-0.19037929 -0.13598521 -0.054394085 0.67992604 -0.19037929 -0.027197042 0.10878817 0.19037929
-1.3054581 -1.4414432 2.2573545 0.054394085 -0.027197042 0.10878817 -0.48954678 -0.29916745
0.19037929 -0.78871423 1.5230343 -0.054394085 -0.13598521 0.43515268 0.27197042 0.8975024
0.8975024 0.054394085 0.625532 0.54394084 0.16318226 -0.13598521 -0.5711379 1.2238669
0.08159113 0.24477339 0.32636452 -0.29916745 0.29916745 1.0062906 -1.0334876 0.0
-0.54394084 0.054394085 -0.027197042 0.08159113 -0.24477339 -0.08159113 0.24477339 -0.027197042
-0.4623497 -0.29916745 0.0 -0.5167438 -0.08159113 0.027197042 0.08159113 0.08159113
0.027197042 1.6862166 -1.3870492 0.32636452 -0.10878817 0.5983349 0.27197042 0.0
0.08159113 2.2301574 -3.4812214 -0.08159113 1.1422758 1.0606847 -0.08159113 0.7071231
0.24477339 1.0878817 0.27197042 0.08159113 0.16318226 0.13598521 -0.5167438 -0.29916745
0.027197042 -0.054394085 0.24477339 0.08159113 0.43515268 -1.5230343 -2.556522 0.08159113
0.4623497 1.4686403 0.87030536 0.19037929 -0.43515268 -1.1966698 -0.87030536 0.0
-0.08159113 -0.16318226 -0.027197042 -0.8431083 0.13598521 -0.10878817 -0.08159113 0.0
0.8159113 -0.27197042 -0.24477339 0.29916745 -0.054394085 0.32636452 0.48954678 -0.35356155
0.08159113 -1.5230343 1.6046255 -0.13598521 0.67992604 0.21757634 0.13598521 0.08159113
-0.054394085 -0.27197042 -0.48954678 -0.5711379 0.10878817 0.0 -0.054394085 -0.27197042
0.10878817 0.054394085 0.08159113 0.27197042 0.054394085 0.48954678 -0.8431083 -0.08159113
-0.35356155 0.21757634 0.4623497 -0.054394085 -0.054394085 0.10878817 0.625532 -0.027197042
-0.054394085 -0.10878817 -0.21757634 1.251064 -0.21757634 -0.32636452 0.27197042 0.4623497
-1.3054581 -0.5711379 -1.4414432 0.24477339 -0.027197042 -0.8431083 -0.40795565 -0.38075858
0.10878817 0.7071231 1.1150787 0.97909355 0.24477339 -0.29916745 0.38075858 -1.6318226
-2.1485662 0.027197042 0.87030536 -1.0334876 0.16318226 -0.5167438 0.29916745 -1.9853841
0.24477339 -0.4623497 0.13598521 -0.5167438 0.16318226 1.9853841 0.76151717 -0.76151717
0.5711379 0.08159113 -0.08159113 0.054394085 0.40795565 0.027197042 0.78871423 -0.21757634
0.0 -0.5167438 -0.43515268 -0.054394085 -0.10878817 -0.38075858 0.16318226 0.21757634
0.54394084 0.625532 0.10878817 0.21757634 -0.19037929 -1.876596 -0.29916745 -0.21757634
0.29916745 -1.876596 0.13598521 0.027197042 -1.4686403 -0.5167438 -0.8975024 -1.1150787
-1.5502315 1.1422758 0.40795565 1.0062906 0.13598521 0.0 0.32636452 0.87030536
0.19037929 -0.97909355 -0.10878817 0.27197042 0.16318226 -2.8556895 1.876596 1.251064
1.3598521 -2.3117485 1.0334876 0.27197042 0.73432016 0.48954678 -1.8222018 -0.13598521
-0.027197042 -0.24477339 -0.08159113 -0.78871423 0.19037929 -0.16318226 -0.21757634 -0.13598521
1.1694728 -0.054394085 0.8159113 0.19037929 -0.08159113 -0.97909355 0.4623497 -0.24477339
00000000: 797b 7e99 797f 8487 504b d382 7f84 6e75
00000010: 8763 b87e 7b90 8aa1 a182 9794 867b 6bad
00000020: 8389 8c75 8ba5 5a80 6c82 7f83 777d 897f
00000030: 6f75 806d 7d81 8383 81be 4d8c 7c96 8a80
00000040: 83d2 007d aaa7 7d9a 89a8 8a83 8685 6d75
00000050: 817e 8983 9048 2283 91b6 a087 7054 6080
00000060: 7d7a 7f61 857c 7d80 9e76 778b 7e8c 9273
00000070: 8348 bb7b 9988 8583 7e76 6e6b 8480 7e76
00000080: 8482 838a 8292 617d 7388 917e 7e84 977f
00000090: 7e7c 78ae 7874 8a91 506b 4b89 7f61 7172
000000a0: 849a a9a4 8975 8e44 3181 a05a 866d 8b37
000000b0: 896f 856d 86c9 9c64 9583 7d82 8f81 9d78
000000c0: 806d 707e 7c72 8688 9497 8488 793b 7578
000000d0: 8b3b 8581 4a6d 5f57 47aa 8fa5 8580 8ca0
000000e0: 875c 7c8a 8617 c5ae b22b a68a 9b92 3d7b
000000f0: 7f77 7d63 877a 787b ab7e 9e87 7d5c 9177

MobilenetV2/expanded_conv_5/expand/weights/read_reordered u1 [96, 1, 1, 16] scale=0.0016938648 zero_point=128
-0.086387105 -0.03557116 0.023714107 -0.07283619 0.011857053 -0.077917784 0.023714107 0.047428213
0.028795702 0.04234662 0.018632513 -0.0338773 0.06606073 -0.010163189 0.06436686 -0.013550919
0.06436686 -0.022020243 0.027101837 -0.0033877296 -0.01693865 -0.015244784 -0.023714107 -0.04234662
-0.008469325 -0.047428213 0.011857053 0.022020243 -0.0050815945 0.0338773 0.015244784 0.020326378
-0.044040486 0.0050815945 0.038958892 0.11857054 0.057591405 -0.07114232 0.038958892 -0.03557116
0.0050815945 0.06436686 0.008469325 0.054203674 0.077917784 -0.038958892 0.047428213 0.110101216
0.0033877296 -0.0050815945 -0.015244784 0.0 -0.0067754593 -0.0033877296 0.013550919 -0.015244784
0.0050815945 0.0016938648 0.011857053 0.0033877296 0.04912208 0.04912208 -0.0067754593 -0.018632513
-0.0033877296 -0.038958892 0.0067754593 0.0 0.027101837 0.023714107 0.008469325 0.0
-0.0050815945 0.0 -0.0067754593 0.018632513 0.011857053 -0.025407972 -0.06436686 0.028795702
-0.0033877296 0.060979135 -0.0338773 -0.0067754593 -0.05928527 -0.06606073 0.047428213 -0.027101837
0.011857053 -0.054203674 -0.038958892 0.020326378 0.0050815945 0.01693865 -0.013550919 -0.020326378
-0.020326378 0.020326378 -0.03557116 0.020326378 0.054203674 -0.015244784 0.015244784 0.062672995
0.010163189 0.0050815945 0.022020243 -0.013550919 0.0 -0.01693865 -0.0050815945 -0.022020243
0.0067754593 0.013550919 0.0 0.0050815945 -0.0050815945 -0.011857053 -0.0067754593 -0.023714107
0.0033877296 -0.008469325 -0.0067754593 0.0033877296 -0.015244784 0.013550919 -0.0016938648 0.015244784
-0.027101837 0.037265025 -0.011857053 -0.040652756 -0.011857053 -0.0033877296 -0.020326378 0.0067754593
-0.008469325 0.008469325 -0.0050815945 0.015244784 -0.011857053 -0.0033877296 0.038958892 0.020326378
0.008469325 0.054203674 0.0067754593 0.01693865 -0.05250981 -0.030489568 0.07114232 -0.04912208
0.07283619 0.028795702 -0.0338773 -0.025407972 -0.015244784 -0.028795702 0.022020243 -0.023714107
0.0016938648 -0.008469325 0.0016938648 -0.01693865 0.0067754593 0.020326378 -0.023714107 -0.03557116
-0.0050815945 0.0 0.013550919 -0.0016938648 -0.0033877296 -0.0033877296 -0.0067754593 -0.0050815945
-0.11857054 -0.0067754593 0.0067754593 -0.11857054 0.0338773 -0.11518281 0.008469325 0.0338773
-0.025407972 0.069448456 0.018632513 0.0 0.0067754593 -0.013550919 0.08299938 0.050815944
-0.07453005 -0.027101837 0.013550919 0.0016938648 0.030489568 0.03218343 -0.011857053 -0.057591405
-0.022020243 -0.01693865 -0.015244784 -0.008469325 -0.013550919 -0.020326378 0.079611644 -0.023714107
-0.040652756 0.013550919 0.07283619 0.008469325 -0.040652756 0.0033877296 -0.0677546 0.013550919
0.0338773 -0.015244784 0.0050815945 0.050815944 0.0 0.010163189 -0.06436686 -0.054203674
-0.008469325 -0.06436686 0.07114232 0.023714107 0.04573435 0.022020243 0.079611644 -0.0033877296
-0.04912208 -0.0033877296 0.018632513 0.022020243 -0.0033877296 -0.018632513 -0.0033877296 -0.022020243
0.025407972 -0.07453005 -0.020326378 -0.028795702 0.030489568 0.0050815945 0.04234662 -0.01693865
-0.0016938648 0.013550919 0.0016938648 -0.037265025 0.0067754593 -0.01693865 0.10840735 -0.023714107
00000000: 4d6b 8e55 8752 8e9c 9199 8b6c a77a a678
00000010: a673 907e 7677 7267 7b64 878d 7d94 898c
00000020: 6683 97c6 a256 976b 83a6 85a0 ae69 9cc1
00000030: 827d 7780 7c7e 8877 8381 8782 9d9d 7c75
00000040: 7e69 8480 908e 8580 7d80 7c8b 8771 5a91
00000050: 7ea4 6c7c 5d59 9c70 8760 698c 838a 7874
00000060: 748c 6b8c a077 89a5 8683 8d78 8076 7d73
00000070: 8488 8083 7d79 7c72 827b 7c82 7788 7f89
00000080: 7096 7968 797e 7484 7b85 7d89 797e 978c
00000090: 85a0 848a 616e aa63 ab91 6c71 776f 8d72
000000a0: 817b 8176 848c 726b 7d80 887f 7e7e 7c7d
000000b0: 3a7c 843a 943c 8594 71a9 8b80 8478 b19e
000000c0: 5470 8881 9293 795e 7376 777b 7874 af72
000000d0: 6888 ab85 6882 5888 9477 839e 8086 5a60
000000e0: 7b5a aa8e 9b8d af7e 637e 8b8d 7e75 7e73
000000f0: 8f54 746f 9283 9976 7f88 816a 8476 c072

MobilenetV2/expanded_conv_12/project/weights/read_reordered u1 [48, 1, 1, 288] scale=0.015767505 zero_point=128
0.22074507 0.15767506 0.20497757 0.2680476 -0.94605035 -0.06307002 -0.34688511 0.0
0.20497757 -0.23651259 0.23651259 0.3311176 -0.36265263 0.09460503 0.2995826 -0.20497757
0.2838151 -0.5833977 0.110372536 0.5991652 0.015767505 -0.2995826 -0.2838151 -0.07883753
-0.047302514 -0.18921006 -0.2522801 0.2680476 -0.07883753 -0.06307002 -0.06307002 0.0
-0.77260774 0.015767505 0.06307002 0.0 -0.23651259 0.20497757 -0.5203277 0.40995514
0.07883753 -0.09460503 -0.8987478 0.2522801 0.015767505 -0.3784201 0.77260774 0.047302514
0.12614004 0.12614004 -0.39418763 -0.09460503 -0.15767506 -0.15767506 0.23651259 0.34688511
-0.40995514 0.06307002 0.18921006 0.20497757 0.07883753 -0.03153501 0.3784201 0.3311176
0.40995514 -0.18921006 0.2995826 0.14190754 -0.20497757 -0.6780027 -0.06307002 -0.2680476
-0.5833977 -0.9618178 0.39418763 -0.42572266 0.5360952 0.2680476 0.03153501 0.2522801
0.07883753 -0.12614004 0.2995826 0.2680476 -0.2838151 0.047302514 0.0 0.07883753
-0.14190754 0.40995514 -0.15767506 -0.06307002 0.2522801 0.36265263 -0.3311176 -0.31535012
-0.20497757 -0.06307002 -0.34688511 0.047302514 -0.31535012 0.09460503 0.22074507 0.5360952
0.31535012 -0.110372536 -0.09460503 0.15767506 -0.23651259 0.2680476 0.45725766 0.06307002
-0.20497757 -0.015767505 0.2838151 0.03153501 -0.45725766 0.31535012 0.40995514 0.09460503
0.047302514 -0.22074507 0.22074507 -0.015767505 0.07883753 0.2680476 -0.3311176 -0.23651259
0.047302514 -0.2838151 -0.5991652 0.18921006 -0.03153501 -0.3784201 -0.07883753 -0.17344256
0.5518627 -0.15767506 -0.20497757 0.31535012 0.63070023 -0.39418763 0.110372536 -0.17344256
-0.015767505 -0.15767506 0.03153501 0.23651259 -0.12614004 0.20497757 0.12614004 0.2680476
-0.09460503 0.0 -0.03153501 0.36265263 -0.40995514 0.12614004 -0.047302514 0.22074507
-0.5203277 -0.17344256 -0.015767505 0.12614004 -0.110372536 0.09460503 -0.23651259 0.2680476
-0.48879266 -0.3784201 0.14190754 0.22074507 0.3784201 0.17344256 0.15767506 -0.22074507
0.03153501 0.12614004 0.5991652 0.2522801 0.047302514 0.047302514 -0.63070023 0.07883753
-0.20497757 -0.110372536 -0.42572266 0.110372536 -0.03153501 -0.18921006 0.07883753 -0.42572266
0.47302517 0.09460503 0.3311176 -0.2522801 -0.20497757 0.06307002 -0.31535012 0.22074507
0.40995514 0.5676302 -0.14190754 0.09460503 0.047302514 0.23651259 0.12614004 -0.2838151
-0.09460503 -0.31535012 0.17344256 -0.45725766 0.06307002 0.2995826 0.5203277 0.2995826
0.34688511 -0.17344256 -0.48879266 0.047302514 0.64646775 0.03153501 0.3784201 -0.34688511
0.15767506 0.14190754 -0.2995826 0.12614004 -0.20497757 0.2522801 0.8199103 0.47302517
-0.06307002 0.0 -0.09460503 0.34688511 0.015767505 -0.22074507 0.0 -0.047302514
-0.45725766 -0.015767505 -0.09460503 -0.42572266 0.2680476 -0.2522801 -0.42572266 0.09460503
0.12614004 -0.015767505 0.15767506 -0.12614004 -0.2838151 0.22074507 -0.22074507 -0.110372536
00000000: 8e8a 8d91 447c 6a80 8d71 8f95 6986 9373
00000010: 925b 87a6 816d 6e7b 7d74 7091 7b7c 7c80
00000020: 4f81 8480 718d 5f9a 857a 4790 8168 b183
00000030: 8888 677a 7676 8f96 6684 8c8d 857e 9895
00000040: 9a74 9389 7355 7c6f 5b43 9965 a291 8290
00000050: 8578 9391 6e83 8085 779a 767c 9097 6b6c
00000060: 737c 6a83 6c86 8ea2 9479 7a8a 7191 9d84
00000070: 737f 9282 6394 9a86 8372 8e7f 8591 6b71
00000080: 836e 5a8c 7e68 7b75 a376 7394 a867 8775
00000090: 7f76 828f 788d 8891 7a80 7e97 6688 7d8e
000000a0: 5f75 7f88 7986 7191 6168 898e 988b 8a72
000000b0: 8288 a690 8383 5885 7379 6587 7e74 8565
000000c0: 9e86 9570 7384 6c8e 9aa4 7786 838f 886e
000000d0: 7a6c 8b63 8493 a193 9675 6183 a982 986a
000000e0: 8a89 6d88 7390 b49e 7c80 7a96 8172 807d
000000f0: 637f 7a65 9170 6586 887f 8a78 6e8e 7279

MobilenetV2/expanded_conv_15/project/weights/read_reordered u1 [80, 1, 1, 480] scale=0.023746097 zero_point=128
-0.071238294 0.40368366 0.16622268 -0.30869928 -0.09498439 0.73612905 -0.23746097 -0.071238294
0.18996878 0.118730485 -0.14247659 -0.071238294 0.09498439 -0.071238294 -0.118730485 -0.09498439
-0.023746097 -0.047492195 0.28495318 0.047492195 0.023746097 -0.16622268 0.6648907 -0.42742977
-0.23746097 0.09498439 -0.118730485 0.09498439 -0.118730485 -0.071238294 0.047492195 -0.16622268
-0.047492195 -0.28495318 0.071238294 0.023746097 -0.14247659 0.33244535 -0.071238294 -0.49866804
-0.071238294 -0.023746097 0.09498439 -0.7598751 -0.118730485 0.047492195 0.071238294 -0.09498439
-0.09498439 -0.023746097 0.28495318 -0.047492195 -0.52241415 0.0 0.0 0.30869928
-0.09498439 0.16622268 -0.118730485 0.14247659 -0.26120707 0.047492195 -0.30869928 -0.28495318
0.18996878 0.09498439 -0.18996878 -0.35619146 0.0 0.26120707 -0.09498439 0.14247659
0.0 -0.37993756 -0.14247659 -0.09498439 -0.071238294 0.023746097 -0.26120707 -0.37993756
0.45117584 0.23746097 0.0 -0.16622268 0.071238294 -0.14247659 0.14247659 0.09498439
-0.023746097 0.0 0.42742977 0.18996878 -0.118730485 0.16622268 -0.21371488 0.18996878
0.071238294 -0.023746097 -0.37993756 0.30869928 -0.16622268 0.26120707 0.071238294 -0.56990635
0.5936524 0.28495318 -0.40368366 -0.071238294 0.09498439 0.26120707 0.047492195 0.09498439
-0.023746097 -0.023746097 -0.18996878 -0.047492195 0.14247659 0.33244535 -0.14247659 -0.26120707
-0.118730485 0.023746097 -0.09498439 -0.047492195 0.071238294 -0.35619146 0.30869928 -0.023746097
0.30869928 0.071238294 -0.118730485 0.023746097 -0.45117584 0.23746097 0.071238294 0.071238294
0.18996878 -0.09498439 0.09498439 0.33244535 0.16622268 -0.09498439 0.16622268 0.16622268
0.09498439 -0.21371488 -0.18996878 0.23746097 -0.30869928 0.047492195 0.18996878 -0.68863684
-0.14247659 0.118730485 0.0 -0.14247659 -0.047492195 0.42742977 0.118730485 0.118730485
0.18996878 0.16622268 -0.28495318 0.14247659 -0.21371488 -0.49866804 0.14247659 -0.26120707
0.16622268 0.16622268 -0.09498439 -0.23746097 -0.14247659 -0.023746097 -0.047492195 -0.047492195
0.18996878 -0.047492195 0.26120707 -0.118730485 0.18996878 -0.118730485 0.09498439 0.023746097
-0.023746097 -0.09498439 -0.28495318 -0.21371488 0.09498439 0.18996878 -0.16622268 -0.14247659
0.33244535 -0.21371488 0.23746097 -0.16622268 0.09498439 0.14247659 0.14247659 -0.28495318
0.18996878 -0.023746097 0.0 0.09498439 0.21371488 -0.047492195 -0.33244535 -0.5936524
-0.071238294 -0.28495318 -0.047492195 -0.118730485 0.37993756 0.40368366 -0.071238294 -0.23746097
0.0 -0.26120707 0.118730485 0.118730485 0.09498439 -0.45117584 -0.047492195 -0.26120707
-0.42742977 -0.023746097 -0.09498439 -0.071238294 -0.047492195 0.14247659 0.47492194 0.118730485
0.18996878 -0.071238294 0.30869928 -0.28495318 0.023746097 0.26120707 -0.35619146 0.118730485
-0.118730485 -0.047492195 -0.023746097 -0.023746097 -0.18996878 0.52241415 -0.21371488 0.30869928
0.0 -0.16622268 -0.14247659 0.33244535 -0.047492195 0.26120707 0.09498439 -0.40368366
00000000: 7d91 8773 7c9f 767d 8885 7a7d 847d 7b7c
00000010: 7f7e 8c82 8179 9c6e 7684 7b84 7b7d 8279
00000020: 7e74 8381 7a8e 7d6b 7d7f 8460 7b82 837c
00000030: 7c7f 8c7e 6a80 808d 7c87 7b86 7582 7374
00000040: 8884 7871 808b 7c86 8070 7a7c 7d81 7570
00000050: 938a 8079 837a 8684 7f80 9288 7b87 7788
00000060: 837f 708d 798b 8368 998c 6f7d 848b 8284
00000070: 7f7f 787e 868e 7a75 7b81 7c7e 8371 8d7f
00000080: 8d83 7b81 6d8a 8383 887c 848e 877c 8787
00000090: 8477 788a 7382 8863 7a85 807a 7e92 8585
000000a0: 8887 7486 776b 8675 8787 7c76 7a7f 7e7e
000000b0: 887e 8b7b 887b 8481 7f7c 7477 8488 797a
000000c0: 8e77 8a79 8486 8674 887f 8084 897e 7267
000000d0: 7d74 7e7b 9091 7d76 8075 8585 846d 7e75
000000e0: 6e7f 7c7d 7e86 9485 887d 8d74 818b 7185
000000f0: 7b7e 7f7f 7896 778d 8079 7a8e 7e8b 846f

MobilenetV2/expanded_conv_9/depthwise/depthwise_weights/read_reordered u1 [1, 3, 3, 192] scale=0.051981788 zero_point=128
0.62378144 0.20792715 0.31189072 0.20792715 0.93567216 -0.20792715 0.36387253 -1.0916176
-0.5198179 0.15594536 0.20792715 -0.051981788 -0.20792715 -0.5198179 0.15594536 0.103963576
-0.15594536 0.20792715 0.46783608 -0.051981788 -0.103963576 0.25990894 0.051981788 0.5198179
0.051981788 0.4158543 -0.20792715 0.36387253 -0.5198179 0.20792715 0.051981788 0.051981788
-0.103963576 0.15594536 -0.103963576 0.31189072 0.15594536 0.4158543 -0.5717997 0.0
-0.36387253 -0.15594536 0.8317086 -0.4158543 0.25990894 0.46783608 0.15594536 0.36387253
-0.25990894 -0.051981788 -0.15594536 -0.4158543 0.20792715 0.31189072 -0.25990894 -0.20792715
0.103963576 -0.31189072 0.20792715 0.5717997 0.62378144 -0.051981788 0.051981788 -0.62378144
0.103963576 -0.051981788 0.103963576 0.051981788 -0.051981788 0.4158543 0.25990894 0.4158543
-0.20792715 0.0 -1.3515265 0.25990894 0.15594536 0.051981788 0.15594536 -0.103963576
0.31189072 0.051981788 -0.20792715 0.103963576 -0.25990894 -0.25990894 -0.25990894 0.72774506
-0.15594536 -0.20792715 0.051981788 0.25990894 -0.051981788 0.103963576 1.3515265 -0.20792715
-0.20792715 -0.5717997 -0.15594536 -0.103963576 0.20792715 -0.31189072 0.0 0.62378144
0.5198179 0.103963576 0.5717997 0.93567216 0.0 0.5198179 1.9233261 0.15594536
0.46783608 0.20792715 0.8317086 0.25990894 0.31189072 -0.8836904 0.103963576 0.103963576
0.25990894 0.051981788 -0.103963576 -0.46783608 0.20792715 0.15594536 0.20792715 3.0149436
-0.46783608 0.103963576 0.31189072 -0.31189072 -0.31189072 0.25990894 -0.25990894 -0.103963576
0.20792715 0.15594536 -0.36387253 -0.20792715 0.20792715 0.103963576 -0.051981788 0.0
4.4704337 -0.103963576 0.103963576 0.25990894 -0.5198179 0.25990894 -0.15594536 -0.103963576
0.20792715 0.31189072 -0.103963576 0.15594536 -0.36387253 -0.051981788 0.051981788 -0.103963576
0.103963576 -0.103963576 0.103963576 -0.103963576 0.36387253 0.15594536 0.0 -0.46783608
-0.5717997 0.31189072 -0.15594536 -0.051981788 -0.051981788 0.051981788 0.051981788 0.15594536
0.20792715 -0.103963576 0.36387253 0.20792715 -0.15594536 -0.051981788 -1.0396358 3.0669255
0.36387253 0.103963576 0.4158543 -0.25990894 -0.31189072 1.8713443 0.0 0.4158543
5.2501607 0.5717997 -0.051981788 0.4158543 -1.4035083 0.31189072 0.0 0.72774506
0.051981788 0.15594536 0.15594536 0.103963576 -0.7797268 -0.8317086 1.2475629 -0.36387253
-0.31189072 0.20792715 -1.1435994 0.20792715 -0.15594536 -0.20792715 0.15594536 0.62378144
0.20792715 -1.1435994 -0.93567216 -2.1832352 -1.2995447 1.1435994 -0.051981788 -0.15594536
1.0916176 0.46783608 -1.4554901 -0.051981788 0.051981788 1.4035083 0.7797268 0.20792715
-0.15594536 0.5198179 -0.8836904 -0.31189072 -0.62378144 0.987654 -0.15594536 0.72774506
0.0 0.93567216 -0.25990894 -0.72774506 -0.36387253 -0.051981788 -0.31189072 0.5198179
-1.0396358 0.051981788 0.15594536 -1.5074718 -0.25990894 0.20792715 0.051981788 0.36387253
00000000: 8c84 8684 927c 876b 7683 847f 7c76 8382
00000010: 7d84 897f 7e85 818a 8188 7c87 7684 8181
00000020: 7e83 7e86 8388 7580 797d 9078 8589 8387
00000030: 7b7f 7d78 8486 7b7c 827a 848b 8c7f 8174
00000040: 827f 8281 7f88 8588 7c80 6685 8381 837e
00000050: 8681 7c82 7b7b 7b8e 7d7c 8185 7f82 9a7c
00000060: 7c75 7d7e 847a 808c 8a82 8b92 808a a583
00000070: 8984 9085 866f 8282 8581 7e77 8483 84ba
00000080: 7782 867a 7a85 7b7e 8483 797c 8482 7f80
00000090: d67e 8285 7685 7d7e 8486 7e83 797f 817e
000000a0: 827e 827e 8783 8077 7586 7d7f 7f81 8183
000000b0: 847e 8784 7d7f 6cbb 8782 887b 7aa4 8088
000000c0: e58b 7f88 6586 808e 8183 8382 7170 9879
000000d0: 7a84 6a84 7d7c 838c 846a 6e56 6796 7f7d
000000e0: 9589 647f 819b 8f84 7d8a 6f7a 7493 7d8e
000000f0: 8092 7b72 797f 7a8a 6c81 8363 7b84 8187

MobilenetV2/expanded_conv_13/expand/weights/read_reordered u1 [288, 1, 1, 48] scale=0.0030512481 zero_point=128
0.0 -0.012204993 -0.015256241 -0.030512482 0.027461233 -0.0061024963 0.054922465 0.051871218
-0.012204993 -0.0061024963 -0.024409985 0.051871218 0.039666224 0.009153744 0.03356373 -0.04881997
0.036614977 -0.012204993 0.0 -0.012204993 -0.021358738 -0.042717475 -0.036614977 0.027461233
-0.03356373 0.061024964 -0.018307488 0.012204993 0.03356373 -0.036614977 -0.024409985 -0.03356373
-0.11899868 0.042717475 -0.018307488 0.0061024963 0.036614977 -0.027461233 0.027461233 -0.0061024963
0.009153744 0.06712746 0.015256241 -0.06407621 -0.036614977 0.07933245 -0.051871218 0.015256241
-0.018307488 -0.009153744 -0.042717475 0.0 -0.027461233 0.03356373 -0.11594743 -0.042717475
-0.030512482 0.045768723 -0.0030512481 -0.030512482 -0.018307488 0.03356373 -0.015256241 -0.0030512481
-0.018307488 0.024409985 -0.03356373 0.024409985 -0.012204993 -0.0030512481 0.0030512481 -0.10679369
-0.0030512481 -0.015256241 0.03356373 -0.018307488 0.021358738 -0.036614977 -0.03356373 0.0030512481
-0.039666224 -0.0030512481 -0.057973716 0.009153744 0.0030512481 0.0030512481 -0.018307488 0.015256241
-0.009153744 0.012204993 0.0 -0.024409985 0.027461233 0.009153744 -0.015256241 0.024409985
0.015256241 -0.027461233 0.04881997 0.042717475 -0.042717475 0.009153744 0.0030512481 0.0030512481
-0.015256241 -0.018307488 -0.0030512481 0.0 0.015256241 0.015256241 0.012204993 -0.042717475
-0.036614977 0.021358738 -0.012204993 0.07322995 0.0061024963 0.030512482 -0.06712746 -0.018307488
0.030512482 0.061024964 0.06407621 0.012204993 -0.024409985 0.009153744 0.03356373 0.015256241
0.054922465 0.024409985 -0.015256241 0.039666224 0.036614977 0.09763994 -0.024409985 0.03356373
0.042717475 -0.027461233 -0.012204993 0.024409985 -0.009153744 0.0061024963 -0.024409985 0.0030512481
0.018307488 0.021358738 -0.0061024963 0.045768723 0.0 -0.03356373 -0.051871218 -0.051871218
0.0061024963 0.036614977 0.015256241 -0.03356373 0.024409985 -0.015256241 0.024409985 0.11899868
-0.039666224 0.036614977 0.018307488 -0.039666224 0.021358738 -0.06407621 0.061024964 0.030512482
0.036614977 -0.024409985 0.061024964 -0.03356373 -0.0030512481 0.027461233 0.036614977 -0.015256241
-0.07017871 0.021358738 0.012204993 -0.018307488 -0.0030512481 0.03356373 0.0030512481 0.045768723
-0.018307488 -0.039666224 0.0061024963 -0.024409985 -0.024409985 0.030512482 -0.009153744 0.045768723
-0.103742436 -0.018307488 -0.030512482 0.0 0.024409985 0.009153744 -0.04881997 -0.009153744
-0.018307488 0.024409985 -0.021358738 -0.061024964 -0.0061024963 0.07933245 0.07322995 0.018307488
-0.0030512481 -0.042717475 -0.012204993 0.012204993 -0.030512482 -0.06407621 -0.03356373 -0.03356373
0.04881997 -0.036614977 0.045768723 -0.0030512481 0.030512482 -0.0061024963 -0.012204993 0.030512482
-0.024409985 0.042717475 -0.036614977 -0.054922465 0.042717475 -0.07017871 0.042717475 -0.015256241
-0.0030512481 -0.024409985 -0.027461233 -0.0030512481 0.0030512481 -0.015256241 0.021358738 -0.027461233
0.009153744 0.1464599 0.012204993 -0.030512482 0.030512482 -0.039666224 0.0030512481 -0.039666224
0.0061024963 0.03356373 -0.042717475 0.024409985 -0.039666224 -0.030512482 0.018307488 0.030512482
00000000: 807c 7b76 897e 9291 7c7e 7891 8d83 8b70
00000010: 8c7c 807c 7972 7489 7594 7a84 8b74 7875
00000020: 598e 7a82 8c77 897e 8396 856b 749a 6f85
00000030: 7a7d 7280 778b 5a72 768f 7f76 7a8b 7b7f
00000040: 7a88 7588 7c7f 815d 7f7b 8b7a 8774 7581
00000050: 737f 6d83 8181 7a85 7d84 8078 8983 7b88
00000060: 8577 908e 7283 8181 7b7a 7f80 8585 8472
00000070: 7487 7c98 828a 6a7a 8a94 9584 7883 8b85
00000080: 9288 7b8d 8ca0 788b 8e77 7c88 7d82 7881
00000090: 8687 7e8f 8075 6f6f 828c 8575 887b 88a7
000000a0: 738c 8673 876b 948a 8c78 9475 7f89 8c7b
000000b0: 6987 847a 7f8b 818f 7a73 8278 788a 7d8f
000000c0: 5e7a 7680 8883 707d 7a88 796c 7e9a 9886
000000d0: 7f72 7c84 766b 7575 9074 8f7f 8a7e 7c8a
000000e0: 788e 746e 8e69 8e7b 7f78 777f 817b 8777
000000f0: 83b0 8476 8a73 8173 828b 7288 7376 868a

MobilenetV2/expanded_conv_12/depthwise/depthwise_weights/read_reordered u1 [1, 3, 3, 288] scale=0.048145354 zero_point=128
0.24072677 -0.28887212 -0.09629071 -0.28887212 -0.24072677 0.9629071 0.0 -0.28887212
0.14443606 0.0 -0.57774425 0.14443606 -0.33701748 0.5295989 0.28887212 -0.19258142
-0.33701748 -0.048145354 0.28887212 0.09629071 -0.048145354 0.818471 -1.3962152 -0.24072677
-0.67403495 0.33701748 0.48145354 0.6258896 -0.24072677 0.048145354 -0.048145354 -0.048145354
-0.38516283 0.09629071 0.28887212 0.14443606 0.048145354 0.77032566 -0.09629071 0.77032566
0.09629071 -0.38516283 -0.09629071 0.0 0.67403495 0.6258896 -0.43330818 -0.19258142
0.0 0.67403495 -0.14443606 0.09629071 0.28887212 0.19258142 0.048145354 0.0
0.09629071 0.67403495 0.0 -0.14443606 -0.57774425 0.24072677 0.43330818 -0.43330818
0.48145354 1.2036338 0.0 0.43330818 0.19258142 0.67403495 -0.28887212 0.048145354
-0.09629071 -0.33701748 -0.048145354 0.09629071 0.38516283 -0.14443606 0.77032566 0.19258142
1.3480699 -0.048145354 0.24072677 -0.28887212 -0.28887212 0.33701748 -0.24072677 -1.5887966
-0.28887212 -0.09629071 0.24072677 0.09629071 0.0 0.7221803 0.0 0.09629071
0.24072677 -0.24072677 -0.048145354 0.14443606 -0.33701748 0.33701748 -0.14443606 -0.14443606
-0.14443606 0.09629071 0.57774425 0.14443606 -0.19258142 -0.09629071 -0.57774425 -0.38516283
0.5295989 0.048145354 -0.818471 0.048145354 0.14443606 -0.14443606 -0.28887212 -0.24072677
0.24072677 -0.19258142 -0.19258142 -0.48145354 -0.5295989 -0.28887212 0.24072677 0.048145354
0.09629071 -0.14443606 -0.6258896 -0.38516283 0.14443606 0.77032566 -0.5295989 0.24072677
-0.6258896 0.048145354 -0.09629071 -0.48145354 -0.09629071 -0.43330818 -0.19258142 -0.67403495
-1.6850874 0.7221803 0.19258142 -0.048145354 -0.14443606 0.818471 0.09629071 -0.14443606
0.7221803 0.19258142 0.33701748 0.67403495 1.1073432 0.09629071 -0.048145354 -0.14443606
-0.048145354 -0.67403495 0.28887212 0.24072677 -0.048145354 0.7221803 -0.09629071 0.67403495
0.5295989 -0.7221803 0.19258142 0.38516283 0.38516283 0.09629071 0.09629071 -0.28887212
-0.09629071 -0.19258142 0.048145354 0.67403495 -0.24072677 0.28887212 0.09629071 0.048145354
-0.048145354 0.818471 0.0 0.19258142 0.24072677 0.38516283 0.38516283 -0.28887212
0.77032566 -0.14443606 -0.38516283 -0.048145354 0.19258142 0.38516283 -0.33701748 -0.048145354
0.28887212 0.14443606 -2.1665409 -0.9147617 0.28887212 -0.33701748 0.33701748 0.14443606
0.09629071 1.1073432 0.048145354 -0.19258142 0.09629071 -0.33701748 0.0 -0.048145354
-0.09629071 1.2999246 0.0 -0.67403495 0.09629071 0.0 -0.09629071 0.19258142
-0.19258142 -0.09629071 0.0 0.09629071 0.048145354 0.09629071 0.14443606 0.14443606
0.19258142 0.14443606 1.2517792 -0.048145354 0.9147617 -0.24072677 0.67403495 0.14443606
-0.19258142 1.1073432 0.19258142 -0.5295989 -0.09629071 -0.28887212 0.43330818 -0.14443606
0.048145354 -1.3480699 -0.14443606 -0.28887212 0.28887212 0.6258896 0.0 0.09629071
00000000: 857a 7e7a 7b94 807a 8380 7483 798b 867c
00000010: 797f 8682 7f91 637b 7287 8a8d 7b81 7f7f
00000020: 7882 8683 8190 7e90 8278 7e80 8e8d 777c
00000030: 808e 7d82 8684 8180 828e 807d 7485 8977
00000040: 8a99 8089 848e 7a81 7e79 7f82 887d 9084
00000050: 9c7f 857a 7a87 7b5f 7a7e 8582 808f 8082
00000060: 857b 7f83 7987 7d7d 7d82 8c83 7c7e 7478
00000070: 8b81 6f81 837d 7a7b 857c 7c76 757a 8581
00000080: 827d 7378 8390 7585 7381 7e76 7e77 7c72
00000090: 5d8f 847f 7d91 827d 8f84 878e 9782 7f7d
000000a0: 7f72 8685 7f8f 7e8e 8b71 8488 8882 827a
000000b0: 7e7c 818e 7b86 8281 7f91 8084 8588 887a
000000c0: 907d 787f 8488 797f 8683 536d 8679 8783
000000d0: 8297 817c 8279 807f 7e9b 8072 8280 7e84
000000e0: 7c7e 8082 8182 8383 8483 9a7f 937b 8e83
000000f0: 7c97 8475 7e7a 897d 8164 7d7a 868d 8082
